# parameters
nc: 1  # number of classes
depth_multiple: 1.00  # model depth multiple
width_multiple: 1.00  # layer channel multiple

# anchors
anchors:
  - [10,13, 16,30, 33,23]   # P3/8
  - [30,61, 62,45, 59,119]  # P4/16
  - [116,90, 156,198, 373,326]  # P5/32

# YOLOv5 backbone
backbone:
  # [from, number, module, args]
  # Two Stream
  [
    ######### TransformerBlock One #############
    # stream one
    [-1, 1, Focus, [64, 3]],    # 0-P1/2
    [-1, 1, Conv, [128, 3, 2]], # 1-P2/4
    [-1, 3, C3, [128]],   # 2-P2/4
    [-1, 1, Conv, [256, 3, 2]],  # 3-P3/8
    [-1, 9, C3, [256]],   # 4-P3/8
    # stream two
    [-4, 1, Focus, [64, 3]],    # 5-P1/2
    [-1, 1, Conv, [128, 3, 2]], # 6-P2/4
    [-1, 3, C3, [128]],   # 7-P2/4
    [-1, 1, Conv, [256, 3, 2]],  # 8-P3/8
    [-1, 9, C3, [256]],   # 9-P3/8

    
    ######### TransformerBlock Two #############
   # transformer fusion
    [[4,9], 1, CIC, [256]], # 10-P2/4
    [[4,10], 1, Add2, [256,1]],  # 11-P2/4 stream one:x+trans[0]
    [[9,10], 1, Add2, [256,0]],  # 12-P2/4 stream two:x+trans[1]   
    [[11,12], 1, CSCR, [256]],   # 13-P3/8
    [[11,13], 1, Add2, [256,0]],    # 14-P3/8 stream one x+trans[0]
    [[12,13], 1, Add2, [256,1]],    # 15-P3/8 stream two x+trans[1]


   ######### TransformerBlock Three #############
   # stream one
    [14, 1, Conv, [512, 3, 2]],   # 16-P4/16
    [-1, 9, C3, [512]],   # 17-P4/16
   # stream two
    [15, 1, Conv, [512, 3, 2]],   # 18-P4/16
    [-1, 9, C3, [512]],   # 19-P4/16
   # transformer fusion
    [[17,19], 1, CIC, [512]], # 20-P2/4
    [[17,20], 1, Add2, [512,1]],  # 21-P2/4 stream one:x+trans[0]
    [[19,20], 1, Add2, [512,0]],  # 22-P2/4 stream two:x+trans[1]  
    [[21,22], 1, CSCR, [512]],   # 23-P3/8
    [[21,23], 1, Add2, [512,0]],    # 24-P3/8 stream one x+trans[0]
    [[22,23], 1, Add2, [512,1]],    # 25-P3/8 stream two x+trans[1]


    ######### TransformerBlock Four #############
    # stream one
    [24, 1, Conv, [1024, 3, 2]],    # 26-P5/32
    [-1, 1, SPP, [1024, [5, 9, 13]]],   # 27-P5/32
    [-1, 3, C3, [1024, False]],   # 28-P5/32
    # stream two
    [25, 1, Conv, [1024, 3, 2]],    # 29-P5/32
    [-1, 1, SPP, [1024, [5, 9, 13]]],   # 30-P5/32
    [-1, 3, C3, [1024, False]],   # 31-P5/32
    # transformer fusion
    [[28,31], 1, CIC, [1024]], # 32-P2/4
    [[28,32], 1, Add2, [1024,1]],  # 33-P2/4 stream one:x+trans[0]
    [[31,32], 1, Add2, [1024,0]],  # 34-P2/4 stream two:x+trans[1]  
    [[33,34], 1, CSCR, [1024]],    # 35-P5/32
    [[33,35], 1, Add2, [1024,0]],    # 36-P5/32 stream one x+trans[0]
    [[34,35], 1, Add2, [1024,1]],    # 37-P5/32 stream two x+trans[1]


    ######### Add Block #############
    [[14,15], 1, Add_CS, [1]],   # 38-P3/8 fusion backbone P3
    [[24,25], 1, Add_CS, [1]],   # 39-P4/16 fusion backbone P4
    [[36,37], 1, Add_CS, [1]],   # 40-P5/32 fusion backbone P5

  ]


# YOLOv5 head
head:
  [
    [-1, 1, Conv, [512, 1, 1]],   # 41
    [-1, 1, nn.Upsample, [None, 2, 'nearest']],   # 42
    [[-1,39], 1, Concat, [1]],    # 43 cat backbone P4
    [-1, 3, C3, [512, False]],    # 44

    [-1, 1, Conv, [256, 1, 1]],   # 45
    [-1, 1, nn.Upsample, [None, 2, 'nearest']],   # 46
    [[-1,38], 1, Concat, [1]],    # 47 cat backbone P3
    [-1, 3, C3, [256, False]],    # 48 (P3/8-small)

    [-1, 1, Conv, [256, 3, 2]],   # 49
    [[-1,45], 1, Concat, [1]],    # 50 cat head P4
    [-1, 3, C3, [512, False]],    # 51 (P4/16-medium)

    [-1, 1, Conv, [512, 3, 2]],    # 52
    [[-1,41], 1, Concat, [1]],     # 53 cat head P5
    [-1, 3, C3, [1024, False]],     # 54 (P5/32-large)

    [[48, 51, 54], 1, Detect, [nc, anchors]],   # Detect(P3, P4, P5)
  ]
